…
nd.jupyter.widget-view+json":{"version_major":2,"version_minor":0,"model_id":"f94a8c7caf934165b3c5a41d11a86318"}},"metadata":{}},{"output_type":"display_data","data":{"text/plain":"Downloading:   0%|          | 0.00/330M [00:00<?, ?B/s]","application/vnd.jupyter.widget-view+json":{"version_major":2,"version_minor":0,"model_id":"fffd30733bc641d1932912dc0ac9e75e"}},"metadata":{}},{"execution_count":4,"output_type":"execute_result","data":{"text/plain":"ViTForImageClassification(\n  (vit): ViTModel(\n    (embeddings): ViTEmbeddings(\n      (patch_embeddings): PatchEmbeddings(\n        (projection): Conv2d(3, 768, kernel_size=(16, 16), stride=(16, 16))\n      )\n      (dropout): Dropout(p=0.0, inplace=False)\n    )\n    (encoder): ViTEncoder(\n      (layer): ModuleList(\n        (0-11): 12 x ViTLayer(\n          (attention): ViTAttention(\n            (attention): ViTSelfAttention(\n              (query): Linear(in_features=768, out_features=768, bias=True)\n              (key): Linear(in_features=768, out_features=768, bias=True)\n              (value): Linear(in_features=768, out_features=768, bias=True)\n              (dropout): Dropout(p=0.0, inplace=False)\n            )\n            (output): ViTSelfOutput(\n              (dense): Linear(in_features=768, out_features=768, bias=True)\n              (dropout): Dropout(p=0.0, inplace=False)\n            )\n          )\n          (intermediate): ViTIntermediate(\n            (dense): Linear(in_features=768, out_features=3072, bias=True)\n            (intermediate_act_fn): GELUActivation()\n          )\n          (output): ViTOutput(\n            (dense): Linear(in_features=3072, out_features=768, bias=True)\n            (dropout): Dropout(p=0.0, inplace=False)\n          )\n          (layernorm_before): LayerNorm((768,), eps=1e-12, elementwise_affine=True)\n          (layernorm_after): LayerNorm((768,), eps=1e-12, elementwise_affine=True)\n        )\n      )\n    )\n    (layernorm): LayerNorm((768,), eps=1e-12, elementwise_affine=True)\n  )\n  (classifier): Linear(in_features=768, out_features=1000, bias=True)\n)"},"metadata":{}}]},{"cell_type":"code","source":"# cache for Hugging Face Transformers and Datasets.\nos.environ['HF_HOME'] = os.path.join(\".\", \"cache\")\n\nset_caching_enabled(True)\nlogging.set_verbosity_error()\n\n","metadata":{"execution":{"iopub.status.busy":"2024-07-18T16:42:19.665655Z","iopub.execute_input":"2024-07-18T16:42:19.665956Z","
…
